src/img_recognition/model/flower.pth (torch_old, 5075 bytes, 4 tensors)

conv1.weight f4 [32, 3, 3, 3]
00000000: a7be 2dbe b427 6dbd a1c9 16be 91f1 e8bd
00000010: 5dfc 3a3d a588 38be fe0b d3bc 20f4 69be
00000020: 4c1a b83d cd6e d63c cd99 94bc d2ff 31bd
00000030: b293 fd3b 2365 4dbc 75dd 1fbe b1ff 10be
00000040: e542 83bd 2bce cd3d c664 073e f959 24be
00000050: e9aa a23d ecf6 63be 95e7 e2bc 81c1 17be
00000060: 1d1b edbd 0060 903d 13b7 dabd 862d 69bd
00000070: a404 8bbd b419 223e fd83 f53d 5821 b93d
00000080: 2f20 933d baaf 093b 1bb3 5a3c 36a0 773d
00000090: be15 6e3e 3447 e23e 704a 2f3e 0b90 4b3e
000000a0: 5ed1 ba3e f044 bc3d 9d5c 683e ab1d 093e
000000b0: 51cd 8f3e 9dc5 aabe 650f 92be 1b37 d5be
000000c0: 0832 bdbe 4616 98be 45f1 8bbe 5d9e 3cbe
000000d0: 5bc6 c9be 9976 82be 427f 463e 8be9 68be
000000e0: e815 aabd fb2b 813e 5b4a 24be 7b01 7dbd
000000f0: decb e8bc 196a 393d bc15 233e c1ab d5bb
00000100: 7470 50be cad8 38be bb0e 043e 735a 81ba
00000110: d587 64be 4c2a 7a3e c950 3f3e 65cf 483d
00000120: bcf4 c2bd bbb0 51be 7fc4 1dbe 9b6b 863e
00000130: f589 013d 0624 37be 0b30 923e 5dd4 393e
00000140: 99e1 5bbe 47fb 863d 5724 ec3d 0375 c3bc
00000150: 0300 7c3d a923 7e3e b988 263e ba98 f63c
00000160: b118 a93d 22b4 323d 942b 343d 4b37 903e
00000170: 6803 a23e 8aee a23e c0db ee3c f310 3d3e
00000180: fa01 aa3e 3f35 de3d b718 533e 1211 33be
00000190: bbea 41be 7149 b1be a625 e6be de64 d2be
000001a0: 8605 fabe dbf7 19be 64c4 ebbe 9f4d 05be
000001b0: 9671 3c3d a079 9c3e ea2e 61bc 8582 ec3e
000001c0: d2a4 2d3e 03f8 893e df09 df3e a2f6 fb3e
000001d0: 03b5 e83e 4ff8 88be 9396 b3be b919 85be
000001e0: 48ba 35be a504 6dbd 0b15 7cbe 46fe 84be
000001f0: a95c d5be f9e2 40be c778 d9bd 11ff db3d
00000200: c976 9ebd 675c 583e b97c 51bd 4258 4ebe
00000210: 490d 6bbc 3e76 73be 659d 47bd 65e6 55be
00000220: be80 84be 4555 3ebc 4f27 31be b82d 29be
00000230: eb30 74be a026 22be 404e 383d 63af 7bbe
00000240: bf3a 17be f3fc dabd bdc4 6bbe cad5 40be
00000250: edf9 da3d 517f b33d d898 debd 3dad a0bc
00000260: 61d0 8fbd eecc a1bd cdd0 1ebc 6abd 3dbe
00000270: 3d94 01be 0ad6 f0bc 0065 a83d 8746 44be
00000280: d47b e3bd 61eb 51be 392d 37bc 0aa1 da3c
00000290: c477 e0bd 19ef 01be abe4 353c c02c 10be
000002a0: edce 5ebd a7c6 d13d a285 16be 2e78 ffbd
000002b0: 2cc8 dabd b17c 0c3d efaa a8bd ee64 503c
000002c0: 9e00 19be 8a30 67be a9e0 5bbe c815 4bbd
000002d0: f67b 1f3e 3c72 9dbd 7733 8e3b 521d 3dbe
000002e0: a9d6 f3bd a2ed bcbc dc57 063e 1766 90ba
000002f0: 8796 e2bc 8af8 c33e bfb6 933e 2830 ab3e
00000300: 709f 9d3d 6df8 e83e 6c6d 9b3e 8a99 613e
00000310: 8de9 cd3d 870b 103e a017 97be c5a9 bbbe
00000320: b6dd 9bbe a075 92be 3d26 bdbe 3681 cbbe
00000330: e212 92bc 5d48 b1be 5368 a1be d85a 973c
00000340: 3f4f 8b3e 1c1e 483c 9600 ea3d c127 6a3e
00000350: a4e2 55bb 99ce 453d 7a07 b73b c623 ca3d
00000360: 9433 803e fb08 83bc ce5e 063e 5611 6f3e
00000370: 2020 21bd 5ba1 c43d 1d09 793e 6b9e 263e
00000380: fd45 8a3e 7f42 cf3d d112 aa3e c11b ac3e
00000390: 9ec1 af3e 5060 383e 27d4 2b3e 690f 6c3e
000003a0: 3d5a 903e c0c7 403e 10f2 24be 76e0 86bd
000003b0: 32f5 abbc d802 57bd 8caf d2bd bd34 023e
000003c0: f348 fa3d 4e48 3dbe b790 a0bd 6658 353e
000003d0: 77e2 293e c2da 3e3e db6e 8cbe 6bff 36be
000003e0: 3ed5 7e3e 5f35 89be 730d 38be cb46 5b3e
000003f0: 179b e9bd 33ac b5bd f15b 5c3e cbb7 7c3d
-0.1696726 -0.057899192 -0.14725353 -0.113742 0.04565083 -0.18020876 -0.025762554 -0.22847033
0.08989391 0.02617588 -0.018139744 -0.04345686 0.007738554 -0.01253632 -0.15611823 -0.14160039
-0.064092435 0.10049089 0.13222036 -0.16049947 0.07942755 -0.22262162 -0.027698318 -0.1481991
-0.11577437 0.070495605 -0.1067945 -0.05692818 -0.067879945 0.15830117 0.119880654 0.09039563
0.07183873 0.0021009282 0.013348366 0.060455523 0.23250481 0.4419495 0.1711824 0.19879167
0.3648786 0.09192836 0.22691579 0.13390224 0.2808633 -0.33353892 -0.2852737 -0.41643605
-0.36952233 -0.29704493 -0.27332512 -0.18419786 -0.39409146 -0.25481108 0.19384483 -0.2274534
-0.083049595 0.25228867 -0.1604399 -0.06176899 -0.028417524 0.0452672 0.1592626 -0.006520719
-0.20355397 -0.18051448 0.12896244 -0.0009868875 -0.22317441 0.24430197 0.18683161 0.04902591
-0.09519336 -0.20477574 -0.15406989 0.2625397 0.031625707 -0.17884836 0.2855228 0.18147416
-0.21472777 0.06590896 0.11530369 -0.023859506 0.06152345 0.24818291 0.16263093 0.030102123
0.08256663 0.04362882 0.04398687 0.28167185 0.31643224 0.31822616 0.02915752 0.18463497
0.33204633 0.1085 0.20614897 -0.1748698 -0.18937199 -0.34626344 -0.44950598 -0.4109258
-0.4883234 -0.15035956 -0.46048272 -0.13017891 0.04600676 0.30561543 -0.013744095 0.46193328
0.16957405 0.2694703 0.4356222 0.49211603 0.454506 -0.26751944 -0.35075817 -0.25996187
-0.17746842 -0.057865757 -0.24617402 -0.25975245 -0.41672257 -0.18836583 -0.106187396 0.107420094
-0.077375 0.21128999 -0.051144335 -0.20150855 -0.014346429 -0.23775575 -0.048734087 -0.2088867
-0.25879472 -0.0116170095 -0.17300151 -0.16521347 -0.23846786 -0.15835047 0.0449965 -0.24578623
-0.14768504 -0.106927775 -0.23024268 -0.18831554 0.10692201 0.08764518 -0.108689964 -0.019613856
-0.07022167 -0.07900415 -0.009693337 -0.18529287 -0.12654205 -0.029398937 0.08222389 -0.19167529
-0.11107603 -0.20499946 -0.0111802155 0.026688118 -0.109603435 -0.12688865 0.011101882 -0.14079571
-0.05439656 0.10242968 -0.14699414 -0.12474094 -0.10682711 0.034298602 -0.08235728 0.012719376
-0.14941642 -0.2257711 -0.2147242 -0.04958132 0.15574631 -0.07687804 0.004339631 -0.18468216
-0.119061776 -0.02306253 0.13119453 -0.0011016753 -0.027659668 0.38275558 0.28850362 0.33435178
0.07696426 0.45502034 0.3035692 0.22031227 0.10054312 0.14066897 -0.29510212 -0.3665296
-0.3044259 -0.28605366 -0.36943236 -0.39747018 -0.01783127 -0.3462552 -0.31524906 0.018475935
0.27208897 0.01221421 0.11425893 0.22866727 -0.003263631 0.04829273 0.005585608 0.098701045
0.2503935 -0.015995493 0.13122103 0.23346457 -0.039337277 0.096010886 0.24319883 0.16271369
0.27006522 0.10120105 0.3321748 0.33614925 0.34327406 0.1800549 0.16780148 0.23052754
0.28193846 0.18826199 -0.16107965 -0.06585781 -0.020990942 -0.052492946 -0.10287389 0.1271543
0.12220945 -0.18484613 -0.07840102 0.17709503 0.16590296 0.18638137 -0.27428326 -0.17870872
0.24886033 -0.2679853 -0.1797388 0.21413724 -0.11406534 -0.08870735 0.21519448 0.061698716

conv1.bias f4 [32]
00000000: 2283 6cbe 6331 07be 8535 f8bd aa97 7e3d
00000010: beef 0c3e c25e d0be 8293 e8bd a7b4 b8bd
00000020: 58a5 aa3d 2fb9 95bd bfa4 20be 1002 16bd
00000030: 5d1f 303d 71d6 09ba 1653 88bd 71b7 c83c
00000040: 136f 63be afd9 24be 8608 573d 603e 473d
00000050: 5ba7 40bd 8cd5 753d c626 84bd 3448 ad3d
00000060: 0976 b23d 1c34 9bbd 89e9 fcbd 2e05 4b3e
00000070: 36b7 3fbd 078b 113e d303 7f3c 5f0f d93c
-0.23096898 -0.13202433 -0.12119583 0.062156357 0.1376333 -0.40697294 -0.1135626 -0.09018832
0.08332318 -0.073107116 -0.15687846 -0.03662306 0.04299866 -0.00052580895 -0.066564724 0.024501534
-0.2221034 -0.16098665 0.052498363 0.04864347 -0.047034603 0.060018107 -0.06452708 0.08461037
0.0871392 -0.075782984 -0.12349231 0.19826195 -0.046805583 0.14213191 0.015564877 0.026496587

linear.weight f4 [5, 32]
00000000: f6cb 843e 857c f0bc b17d ad3e ee2c c4bd
00000010: c46d 73be 063f 873e 664a ca3d daa1 abbe
00000020: ea6c 013f e0cd a43e e8d5 9bbc f0a8 433e
00000030: 7223 87bd 9d41 27bf 018e 8e3e 07f8 fb3e
00000040: 8e4e 16be 28ff 9b3e 5ce6 3dbf 9d13 26bf
00000050: 21a8 d5bd a6e9 573e cfb6 133e 069e 87be
00000060: e495 023e 2a13 773e c174 97be 9c3f 493e
00000070: 76f7 753e d821 f13c 82b9 863e 33bf d0bd
00000080: e285 5b3d db8e 943e a273 19bf 3f49 90bd
00000090: 386f 7fbf 11dd 933e ad1a b43d 8828 20bf
000000a0: 2888 013f 9ea8 d6be 94b5 edbd 5a2f acbd
000000b0: df73 813e 9c97 6abf 0c64 0b3f 4ab7 943e
000000c0: d821 66be ee50 cbbc 3e90 77bf ed23 8ebf
000000d0: 27e6 52bd ad33 31bf a498 3cbe e78c 45bf
000000e0: c1c9 e93d e9d4 edbe cf76 87be 1032 8e3e
000000f0: 257c 26bf 655a b43d d32d 613d ee55 123f
00000100: 7b6e e03c e3b0 7ebf 9c45 f2bd f17a 66bf
00000110: 5fc4 1c3f 17e0 593e 1121 8d3e 4e0f 0e3f
00000120: 2075 6abe 614e 3dbe dc9b 1c3d df4d 39be
00000130: 888c fabe 1f50 8f3f 8b16 37be 3a55 a73d
00000140: 91b3 97be a3bc 1b3e efad 803f f68f 6c3f
00000150: 4a7b c1bd fd8b 343e 5eeb 8f3c 0132 b63e
00000160: 9f8d 9dbe b977 3a3d 5196 0fbe 6ffd cbbd
00000170: 3a6a 873e 2078 21be 1cc4 393e 132f 7dbf
00000180: 06d4 b1be f9f0 f93e 5a1e b0bd e2a2 3d3f
00000190: 8849 b03e c9a6 06bf 0450 a2bc 61ba d8be
000001a0: ff84 53be a9cd fd3c 582b ea3d 1ccb 69bd
000001b0: 4804 c53d 8e8e 44bf 54d5 3cbf de2b a9be
000001c0: f1a1 5f3f a6dc b1be 88fa 61be f770 e1bc
000001d0: 5230 263f 9e41 9c3e bf6d 673e f4c3 fa3e
000001e0: 3d68 d2bc 2a4e bebd 1e43 e43e ed40 9ebd
000001f0: a2ba 753d 1b6e 59be b484 7ebe a2fd a43e
00000200: faf8 58be 5b03 193e f9de 923c c6f8 3a3d
00000210: d654 673e b73b bdbe b0cc 53be 9353 3f3f
00000220: f6a3 ddbe 7f02 8c3e b072 e83d 85f3 8abe
00000230: 03a5 9d3e a941 9c3f 42c4 963e 7ee9 cebe
00000240: edd2 96be 3447 4bbe dafb 523f fadc 393f
00000250: d259 a5be a91a 0e3e 38ae 293e 344c 703e
00000260: d845 0fbe 4b0e 263e b7b6 0ebe 6f2d 72be
00000270: 884e ac3e ec98 373d 52f0 69bc c7c5 e93d
0.2593686 -0.02935625 0.33884957 -0.09578882 -0.23772341 0.2641527 0.098774716 -0.3352192
0.50556815 0.3218832 -0.019022897 0.19107413 -0.065985575 -0.6533449 0.27842715 0.49212667
-0.14678404 0.30468106 -0.74179626 -0.6487368 -0.10432459 0.21085224 0.14425205 -0.2648775
0.12752491 0.24128404 -0.29581264 0.19653171 0.2402018 0.029435083 0.26313406 -0.10192718
0.053594477 0.2901524 -0.59942067 -0.070452206 -0.9977908 0.28879598 0.087941505 -0.62561846
0.5059838 -0.4192552 -0.11606899 -0.08407469 0.25283715 -0.9163759 0.54449534 0.29046088
-0.22473848 -0.024818864 -0.9670447 -1.1104714 -0.05148902 -0.69219476 -0.18417603 -0.77168125
0.11415435 -0.464515 -0.2645783 0.2777257 -0.6503318 0.08806304 0.054975342 0.5716237
0.027396431 -0.9948866 -0.11829683 -0.90031344 0.6123714 0.2127689 0.2756429 0.55492103
-0.22896242 -0.1848693 0.038234577 -0.18096112 -0.48935342 1.1196326 -0.17879693 0.081705526
-0.29629186 0.15208678 1.005308 0.92407167 -0.09447344 0.17631526 0.017568287 0.35585025
-0.3077211 0.045524333 -0.14022185 -0.09960448 0.26448232 -0.1576848 0.18141216 -0.98899955
-0.34732074 0.4881666 -0.08599539 0.74076664 0.344311 -0.52598244 -0.019813545 -0.42329696
-0.20656203 0.030981855 0.114340484 -0.057078466 0.09619957 -0.7678002 -0.7376301 -0.3304128
0.8735648 -0.34738654 -0.22068226 -0.027519686 0.6491748 0.30518812 0.22600459 0.48977625
-0.02568447 -0.09292252 0.44582456 -0.07727227 0.05999244 -0.21233408 -0.2485531 0.32224756
-0.21188727 0.14942686 0.017928587 0.045647405 0.22590956 -0.3695962 -0.20683551 0.747369
-0.43289155 0.27345654 0.1135 -0.27138916 0.30789956 1.2207538 0.29446608 -0.40412515
-0.294578 -0.1985138 0.82415545 0.7260281 -0.3229509 0.13877358 0.16570365 0.23466569
-0.13991487 0.1621639 -0.13936888 -0.23650144 0.33653665 0.044823572 -0.014278488 0.11414676

linear.bias f4 [5]
00000000: 15c4 d6be e776 383f cb18 00bf f27b 2c3e
00000010: 57fd 303e
-0.41946474 0.7205643 -0.5003783 0.16844156 0.17284141
